backend/models/model3.pth (torch, 196936 bytes, 4 tensors)

fc1.weight f4 [128, 378]
000000 a9 28 dd be c0 7b cd be 9a ae b4 be 52 d1 c7 be
       -0.43195084 -0.40133476 -0.3528946 -0.39026886
000010 16 14 a2 be 73 91 b7 be 59 a0 a6 be 0c 13 88 be
       -0.3165595 -0.35853156 -0.3254421 -0.26577032
000020 92 5c 4e be 48 cc 3f be ec 31 24 3d 94 2d 30 3d
       -0.201525 -0.18730271 0.04008667 0.043012217
000030 f3 b2 ec 3c 8a 83 04 bc 66 20 f0 ba 83 af 02 3d
       0.028893923 -0.008088002 -0.0018320202 0.031905662
000040 12 53 c4 ba f7 69 a3 3c b0 bd f8 3c d4 61 9e 3c
       -0.001497837 0.019947989 0.030363888 0.019333757
000050 8e f5 fd 3c e8 4d d1 be 8b f0 df be 7a 4c b5 be
       0.031000879 -0.4087975 -0.43738207 -0.3540991
000060 8e 36 8a be 56 85 bb be bf 28 8e be 50 47 96 be
       -0.26994747 -0.36625165 -0.27765462 -0.29351282
000070 27 48 77 be e6 a3 42 be e5 e0 3f be 69 d1 4a be
       -0.24148618 -0.19007835 -0.18738134 -0.19806446
000080 a8 65 36 be 90 8b 3c be b1 37 1e be 95 3a 53 3b
       -0.17812216 -0.18412614 -0.15450932 0.0032230963
000090 de 4f 37 3d ef 9b 3f bd bb b1 61 bc 37 2c 4c bd
       0.0447539 -0.04677957 -0.013775284 -0.049846854
0000a0 49 0c c5 bc 48 c1 4a bb ec 30 b6 be fb 59 fb be
       -0.02405371 -0.0030937959 -0.355842 -0.49092087
0000b0 a6 22 b2 be bd a2 aa be 10 23 ad be d7 ab d3 be
       -0.3479206 -0.33327284 -0.33815813 -0.4134204
0000c0 f5 aa 6e be 8f 21 4d be 4c 2b 36 be af a1 23 be
       -0.23307402 -0.20032333 -0.17789954 -0.15979646
0000d0 96 8d 01 be b9 94 d3 bd ae 72 21 bd 81 a2 07 be
       -0.12651667 -0.10331101 -0.039416008 -0.13245584
0000e0 ed 00 f3 bc b6 c4 33 bd 8d f9 0a bd f3 a9 32 bd
       -0.029663527 -0.04388877 -0.033929396 -0.043619107
0000f0 9f c6 96 bb ac f0 60 bb ff 31 b1 bc 19 bd e3 be
       -0.004601314 -0.003432314 -0.021630285 -0.44480208
000100 7d f1 c1 be 85 46 bc be d8 d1 c4 be a0 c4 8d be
       -0.37879553 -0.36772552 -0.38441348 -0.27689075
000110 fe 89 c3 be b1 1f 55 be c3 7b 4b be e5 f4 1c be
       -0.38191217 -0.2081287 -0.1987143 -0.15327795
000120 98 cf 41 be f8 e4 00 be 90 b4 9d bd 16 ad ea bd
       -0.18926847 -0.12587345 -0.07700455 -0.11458795
000130 b1 2e 10 be d2 c7 9a bd 1e 86 92 b9 c3 fb 93 bc
       -0.14080311 -0.07557644 -0.00027947215 -0.018064385
000140 11 fc b5 3c 3d 7e a0 3c 83 3c 12 3d f6 7a 96 ba
       0.022214921 0.019591445 0.03570224 -0.0011480737
000150 d2 4d c1 be 7b 2c c6 be ff d9 ba be ff 62 ad be
       -0.37754685 -0.3870581 -0.36494443 -0.3386459
000160 01 03 a6 be 34 82 a5 be 39 0b 8d be 01 2e 68 be
       -0.32424167 -0.323259 -0.27547625 -0.22673799
000170 0c c8 11 be 62 6a f3 bd 77 08 ec bd e1 ad a5 bd
       -0.14236468 -0.11885525 -0.11525052 -0.080898054
000180 32 c4 5a bd d1 06 c6 bd 45 85 79 bd 7b 5a 84 bc
       -0.053409763 -0.09669269 -0.06091811 -0.016156426
000190 de 96 91 bc 87 94 59 3b 0b 16 25 3c 65 bf 2d 3d
       -0.017772134 0.0033200101 0.010076056 0.042418856
0001a0 1a bf f2 bb 1a f8 a0 be 26 8a 9b be 41 d2 97 be
       -0.007408035 -0.31439286 -0.30378836 -0.29652599
0001b0 be ab 89 be 81 6b 84 be b9 21 89 be 5e 8f 95 be
       -0.2688884 -0.2586327 -0.2678354 -0.29210943
0001c0 8b 56 22 be 08 a9 1a be 58 52 87 bd af 34 a9 bc
       -0.15853326 -0.15103543 -0.06607503 -0.020655004
0001d0 c5 b0 8a 3c 23 cf 51 3d ef 7e 51 bb 03 80 db bb
       0.016929993 0.05122293 -0.0031966527 -0.00669861
0001e0 e1 e3 8d bc 9a 16 32 3d ce 61 04 3d a1 bb 04 3c
       -0.017320575 0.043478586 0.032319836 0.008101375
0001f0 3e ac 19 bd c1 76 87 bb 80 54 8d be 88 b5 40 be
       -0.03751778 -0.0041340296 -0.2760353 -0.18819249
000200 6a 1b 85 be d0 a9 44 be a9 c4 49 be 77 39 71 be
       -0.25997478 -0.19205403 -0.19703926 -0.23557077
000210 53 1b 61 be d7 84 38 be 85 6e 74 bd 86 3e 92 bc
       -0.2198308 -0.18019424 -0.059675712 -0.01785208
000220 11 72 9e 3c f4 e1 9c 3c 33 cb 94 3c 8c 83 02 bc
       0.0193415 0.019150712 0.0181633 -0.0079659335
000230 07 a3 ff ba bb 7b 93 3c d5 81 b4 ba 2b 6f ec bc
       -0.0019503542 0.018003335 -0.0013771603 -0.028861603
000240 ea b2 84 3d c5 61 ad 3c 61 7c b5 3c 58 a1 60 be
       0.06479438 0.021164784 0.022154035 -0.21936548
000250 9b ff 7e be 1b c7 8a be 2b 1a 86 be 34 c1 57 be
       -0.24902193 -0.2710503 -0.2619184 -0.21069795
000260 9b 53 30 be 66 81 ab bd 69 cc 71 bd b9 07 0b bd
       -0.17219393 -0.0837429 -0.05903283 -0.03394291
000270 20 0c 2e 3d 9c 9f 29 bd 05 2e 9f 3d 5c 83 0d 3e
       0.042492032 -0.04141198 0.077724494 0.13819641
000280 65 15 f9 3d c1 77 95 3d ac e2 99 3b 73 9c 42 3d
       0.12162284 0.07298232 0.004696211 0.047512483
000290 5c d0 85 3d 67 0f 2c 3d 4a fe ec bc 51 0a fb bb
       0.06533882 0.042006876 -0.028929848 -0.007661142
0002a0 15 55 6d be 7d 75 73 be 6e 30 40 be 60 51 12 be
       -0.23176987 -0.23775287 -0.18768474 -0.14288855
0002b0 ab bc 1a be f0 ae 92 bd c0 1f b2 bd 6b 55 2a bd
       -0.15111034 -0.07162273 -0.08697462 -0.041585367
0002c0 99 10 16 3d be fc bc 3d 39 91 cb 3d b5 ba 34 3e
       0.036636923 0.09227894 0.099398084 0.17649348
0002d0 6f 81 9a 3d 9b 95 56 3d e4 62 8b 3d 44 f8 eb 3d
       0.07544219 0.05238877 0.06805971 0.11521962
0002e0 bb d7 81 3d f5 2f 85 3d ae 86 a8 3d 55 e7 37 3e
       0.063399754 0.06503288 0.08228813 0.1795934
0002f0 f0 84 16 3e 0a d1 3a be ea bd 1a be 6f 35 3e be
       0.14699149 -0.18243805 -0.15111509 -0.18575071
000300 6d 20 3f be d6 82 35 be 72 24 ae bd f2 2e 3d bd
       -0.18664713 -0.17725691 -0.08503045 -0.04618735
000310 98 42 58 3c 5a d8 2a 3e b4 7f 28 3e d3 74 8a 3e
       0.013199471 0.16684094 0.16454965 0.27042255
000320 ee 16 39 3e 9c 17 ae 3e 6d bc 10 3e 9d de 3a 3e
       0.18075153 0.34002388 0.14134379 0.18248983
000330 27 53 88 3d bc 00 59 3e 71 f8 48 3e fe 81 12 3e
       0.06656485 0.21191686 0.19626023 0.143074
000340 45 49 30 3e ef d4 72 3e 34 37 00 3c 20 9c 17 be
       0.1721545 0.2371404 0.007825661 -0.1480565
000350 b3 dd 8b bd 84 89 d1 bd a6 2a 8e bd 8b 25 4d bd
       -0.06829395 -0.10231307 -0.06941728 -0.050084632
000360 d0 9d 9c 3c 6c ea 70 3d c4 7b 30 3e 24 4d 7a 3e
       0.01911822 0.058817312 0.17234713 0.2444349
000370 3c c0 9b 3e b9 26 b8 3e c7 8d 96 3e 85 5b 92 3e
       0.304201 0.35967043 0.29405043 0.2858545
000380 4f 4a 91 3e ba f7 7d 3e c5 c3 1a 3e c7 92 9e 3e
       0.28377005 0.24801531 0.15113743 0.30971357
000390 29 a5 39 3e 4b 54 52 3e 6f b9 95 3e 97 60 46 bd
       0.1812941 0.20539968 0.29243037 -0.04843196
0003a0 5a 6a a7 bd 0c fd b7 bd 71 99 ac bd d0 88 90 3c
       -0.08174582 -0.08983812 -0.08427704 0.017643362
0003b0 15 e3 f0 bc 04 9d d1 3d c7 c7 f8 3d ee 97 1f 3e
       -0.029405156 0.102350265 0.121474795 0.155853
0003c0 bf 73 9a 3e 5b b4 93 3e 3a dd ab 3e aa 4f da 3e
       0.30166432 0.28848538 0.3356722 0.42638904
0003d0 08 3a ca 3e 2d fc dc 3e 8a c7 aa 3e d9 0a a8 3e
       0.394974 0.43161145 0.3335536 0.32820776
0003e0 b0 2c 7b 3e 9c 95 be 3e 07 49 a9 3e 71 e5 c1 3e
       0.24528766 0.37223518 0.33063528 0.37870362
0003f0 81 dc 51 bd 66 60 a9 bd c4 e2 c3 bc 35 16 02 bc
       -0.05123568 -0.0827034 -0.023911841 -0.007939865

fc1.bias f4 [128]
000000 ac 77 29 3f 48 e8 0a 3e 26 a1 06 3f 69 5e 38 3e
       0.6619823 0.13565171 0.52589643 0.18004765
000010 99 b3 1d 3f 67 c6 21 3f da 02 29 3f 29 3e 12 3e
       0.6160217 0.6319336 0.66019976 0.14281525
000020 1b ee 17 3f 1a be 5a bd df 5d 28 3f d8 d2 3b 3e
       0.59347695 -0.05340395 0.65768236 0.1834215
000030 de 1b 19 3e 16 8d 17 3f 6c a5 f3 3e e9 3c 25 3f
       0.14952037 0.59199655 0.47587144 0.64546067
000040 8d 25 2a 3f 07 ba 1a 3f 97 26 2f 3f ed 47 8a 3e
       0.6646355 0.60440105 0.6841826 0.27008
000050 e9 b3 0a 3f 2c ac 16 3f c5 fe 25 3f 4d 21 0e 3e
       0.5418077 0.58856463 0.6484187 0.1387989
000060 21 61 21 3f b2 c4 16 3f 8e cd 11 3f a1 33 24 3f
       0.6303883 0.58893883 0.56954277 0.6414128
000070 9b 55 1e 3f 01 4c 19 3f 3e ea 8b 3e b2 80 13 3f
       0.61849374 0.598816 0.2732715 0.5761825
000080 06 92 31 3e b5 27 1f 3f 03 95 19 3f a7 53 12 3f
       0.1734086 0.62169963 0.59993 0.57158893
000090 e6 f7 4d bd a3 cf 0b 3f 67 eb 05 3e 84 c6 1e 3f
       -0.050285242 0.54613703 0.1307808 0.6202166
0000a0 75 99 5e 3e 36 2f 83 3e 55 98 21 3e 4d 21 2a 3f
       0.21738227 0.25621957 0.15780766 0.6645706
0000b0 44 c8 0d 3f b9 e8 16 3f fe 09 f7 3d 27 cc 22 3e
       0.55383706 0.58948857 0.12062453 0.1589819
0000c0 d2 1f 1b 3f de e0 12 3f 7b 9a 13 3f 1e a5 26 3e
       0.6059543 0.5737437 0.57657593 0.16273925
0000d0 11 7f c6 3e 1f c6 4d 3e 65 26 1b 3f 22 11 18 3f
       0.3876882 0.20095108 0.6060546 0.5940114
0000e0 c8 12 35 3e bd 8c 88 3e b4 c0 25 3f 7f 03 be 3d
       0.17682946 0.26669875 0.64747167 0.092780106
0000f0 23 34 15 3f 78 9f 15 3f 97 c2 2a 3e 56 39 27 3e
       0.5828268 0.58446455 0.16675793 0.16330466
000100 dd b2 48 3e 6a e6 f7 3e 1f 5a 34 3e 2d d3 18 3e
       0.19599481 0.4841798 0.17612503 0.14924307
000110 52 7b ae 3e 98 b3 18 3f 38 ae 87 3e a4 d4 1c 3e
       0.3407846 0.5964904 0.26500106 0.15315491
000120 f9 1b 0a 3f b4 62 9e bd e5 27 27 3f 99 6c 13 3f
       0.5394893 -0.0773367 0.6529525 0.5758758
000130 f8 08 10 3f 9b bd 86 3e d3 5c 2c 3e 90 c6 0d 3f
       0.56263685 0.26316532 0.16832285 0.5538111
000140 11 52 f5 3e b8 e1 2c 3f 96 b8 20 3f a1 fe 1c 3e
       0.47914174 0.6753192 0.62781656 0.15331508
000150 26 d7 19 3f f9 9b 08 3f 17 ea 0d 3f 1f c7 84 3e
       0.60093915 0.53362995 0.5543532 0.25933167
000160 ad 5e 1d 3f a5 bb 28 3f 35 f7 94 3e aa 6e fe 3e
       0.6147259 0.6591132 0.29094854 0.49693805
000170 d0 61 1e 3f b4 93 12 3f 50 f6 f1 3e 46 2d 57 3e
       0.61868 0.5725663 0.47258234 0.21013364
000180 f9 9b 11 3f 7b c0 25 3f 6e 2b 2a 3f 6f c6 1a 3f
       0.5687862 0.64746827 0.6647252 0.60459036
000190 70 70 16 3f 5e d5 1c 3f 81 6d 1d 3f 17 2d 25 3f
       0.58765316 0.6126307 0.61495215 0.64521927
0001a0 bb 11 2f 3e dc 1c 06 3f 54 65 15 3e 18 90 0e 3f
       0.17096607 0.52387786 0.14589435 0.5568862
0001b0 6b e0 27 3f af 2b 17 3f 0e 83 39 3e 0e 9b 21 3f
       0.6557681 0.5905103 0.181164 0.6312722
0001c0 64 51 19 3e bd e9 28 3f cd e1 26 3f f9 fc e5 3e
       0.14972454 0.65981656 0.65188295 0.44919565
0001d0 83 ba 0a 3f 6e ee 4b 3e 19 ba 26 3f 1e 81 75 3e
       0.54190844 0.19915172 0.6512771 0.23975036
0001e0 be 4a 80 3e f3 06 29 3f e8 12 09 3f 1e 01 9c 3e
       0.25057024 0.6602623 0.53544474 0.30469602
0001f0 c6 19 20 3f dd de 03 3e f8 5a fa 3e d7 d0 3d 3e
       0.6253933 0.12877984 0.4889753 0.18536697

fc2.weight f4 [2, 128]
000000 91 8c 0b 3f b1 1c d7 3e 36 d1 c7 3e 06 6c f0 be
       0.5451136 0.42014077 0.39026803 -0.46957415
000010 19 a1 b2 3e 17 4d c9 3e 5a e2 b4 3e a4 21 97 be
       0.34888533 0.39316627 0.35328943 -0.29517853
000020 cf 5f b5 3e 5a 0f b2 3c 5a cc 23 3f 25 5b 08 bf
       0.3542466 0.021735836 0.6398369 -0.53264076
000030 e6 af da be 7a b9 d9 3e c7 1a 06 3f a0 c1 df 3e
       -0.42712325 0.4252432 0.5238461 0.43702412
000040 60 94 0e 3f 1c ed 0e 3f 9f 64 31 3f f9 71 e7 3e
       0.5569515 0.5583055 0.6929416 0.45204142
000050 f1 cc 1f 3f 8f a6 10 3f 98 db da 3e 38 db 2b be
       0.6242209 0.5650415 0.42745662 -0.16782844
000060 19 1c e9 3e 3e 3e 67 3e ba 28 c6 3e 09 7f 29 3f
       0.4552925 0.22582337 0.38702947 0.66209465
000070 27 34 b7 3e bf 91 2a 3f 01 56 da 3e 88 f5 f4 3e
       0.35781977 0.6662864 0.4264374 0.47843575
000080 5b 87 cf be 91 8c 0d 3f ce de 13 3f 95 bd 21 3f
       -0.40532956 0.5529261 0.5776185 0.63179904
000090 aa fb f4 3c c1 36 b8 3e d2 8f bb 3e 32 e4 17 3f
       0.029905159 0.35979274 0.36633164 0.59332573
0000a0 89 61 a5 be 9d 7a fa be b2 ff b8 be eb 66 d1 3e
       -0.32300976 -0.48921672 -0.3613258 0.40898833
0000b0 d4 43 2a 3f cc 9a b8 3e 4e 81 59 3e 0c 18 cf be
       0.6650975 0.360556 0.21240732 -0.40448034
0000c0 9c 30 ea 3e 3c 7a c1 3e b2 8b d8 3e 9e c5 db be
       0.4574021 0.3778857 0.4229408 -0.42924207
0000d0 2f 22 1f 3f 0b 44 12 be 5d 96 e4 3e 45 aa ed 3e
       0.62161535 -0.14283769 0.44645968 0.46418968
0000e0 07 59 94 be 47 e0 f0 3e fc d2 0e 3f 18 2e d2 3e
       -0.28974172 0.4704611 0.55790687 0.41050792
0000f0 61 07 1c 3f f2 77 0c 3f 52 24 b1 be a7 bd 29 bf
       0.6094876 0.5487052 -0.34598023 -0.6630501
000100 89 73 cd bd d3 72 13 3f 1f 1a 07 bf 79 c5 c4 be
       -0.10031802 0.5759708 -0.5277423 -0.3843191
000110 f0 95 f0 3e 8b 0f 12 3f aa 79 fa 3e e3 ca 19 bf
       0.46989393 0.57054967 0.48920947 -0.60075206
000120 5d 2c 26 3f 75 40 53 3e 09 8b c6 3e 2b a3 1a 3f
       0.64911443 0.20630057 0.3877795 0.60405225
000130 a7 65 24 3f 49 03 80 bd 8e f6 bb be 30 2e 19 3f
       0.6421761 -0.062506266 -0.36711544 0.598361
000140 e9 3c 0a 3f 18 1c ca 3e 31 76 bc 3e 33 f1 e5 be
       0.5399919 0.3947456 0.36808923 -0.44910583
000150 2a 3c 7a 3e c3 35 19 3f ad 4c e1 3e bb 80 e4 be
       0.24437013 0.5984766 0.4400381 -0.44629464
000160 47 45 39 3f 7b a0 11 3f 45 f6 fc 3e 37 4b 22 3f
       0.72371334 0.568855 0.4940664 0.6339602
000170 76 d8 d4 3e a1 83 f1 3e 3c 2f 19 3f 5e 3c b7 be
       0.41571397 0.47170737 0.598377 -0.35788244
000180 1d 8a 40 3f fd 67 1d 3f 88 5d e8 3e 7e b7 10 3f
       0.75210744 0.614868 0.4538386 0.56529987
000190 33 82 c3 3e 6a 06 ac 3e 0c d4 29 3f 26 01 b8 3e
       0.38185272 0.33598644 0.6633918 0.35938376
0001a0 dd b0 04 bf 76 31 09 3f 11 68 a2 be 40 30 2c 3f
       -0.5183237 0.53591096 -0.3172002 0.67261124
0001b0 62 8b a1 3e fa e7 24 3f 3d f6 a7 3e d6 fd a2 3e
       0.31551653 0.6441647 0.32805052 0.31834286
0001c0 99 e5 c1 3e 17 35 cf 3e b1 09 1b 3f a8 6c 0f 3f
       0.37870482 0.40470192 0.6056166 0.5602517
0001d0 9b 43 a5 3e 8f a3 cc be 64 7d 22 3f 67 d7 90 be
       0.3227814 -0.39968535 0.6347258 -0.2828934
0001e0 84 61 3a be ae 18 0e 3f 65 4d d7 3e 08 04 e9 3e
       -0.18201262 0.5550641 0.42051235 0.45510888
0001f0 04 d4 dc 3e b5 b3 1e 3f b7 af 2b 3f 04 96 c6 be
       0.43130505 0.6199296 0.67064995 -0.38786328
000200 58 0b 07 3f d5 f8 64 bc 65 7f 24 3f a9 8d b2 be
       0.52751684 -0.013975342 0.6425689 -0.34873703
000210 4a a7 fb 3e 47 43 06 3f fa 78 f7 3e 5b 12 7a be
       0.4915107 0.5244641 0.48334485 -0.24421065
000220 4b dd 00 3f 78 72 71 bd 96 0a 06 3f 81 92 ca bd
       0.50337666 -0.058947057 0.523599 -0.09891225
000230 f6 43 95 bd af f9 15 3f f8 05 cf 3e f6 21 04 3f
       -0.07288353 0.5858411 0.4043424 0.5161432
000240 6d 77 0b 3f 11 c2 0d 3f 67 48 fa 3e 6c af 67 bc
       0.54479104 0.55374247 0.48883364 -0.014140945
000250 d1 a2 25 3f 2d 36 12 3f eb d7 0c 3f c8 dc 83 be
       0.64701563 0.57113916 0.55016965 -0.2575438
000260 92 49 0a 3f 08 29 ea 3e de fd 23 3f 14 4b e1 3e
       0.5401851 0.4573443 0.64059246 0.44002593
000270 a9 95 08 3f 87 de d1 3e b4 eb 08 bd ed 0a 13 3f
       0.53353363 0.40990087 -0.03342791 0.57438546
000280 62 05 bb be 32 97 10 3f 12 34 18 3f 50 8c 2b 3f
       -0.36527544 0.56480706 0.59454453 0.67010975
000290 36 6a 99 bc cf 3d 16 3f 9f 02 fc bb 03 60 11 3f
       -0.018727403 0.5868806 -0.007690742 0.5678713
0002a0 a3 26 cd be 93 ec 17 bf bb 4a a0 be 5c 3f fa 3e
       -0.4006854 -0.5934536 -0.31307015 0.48876464
0002b0 6a d6 20 3f e4 71 10 3f 36 63 b4 bb 01 b7 29 be
       0.6282717 0.56423783 -0.005504991 -0.16573717
0002c0 fa 92 10 3f 30 3f 0f 3f 7f 05 17 3f e6 1e ba be
       0.5647427 0.5595579 0.5899276 -0.363517
0002d0 08 ed 9a 3e e3 7e ea be fe e6 08 3f 4d 16 16 3f
       0.30258965 -0.45799932 0.53477466 0.5862778
0002e0 c1 7d 6b be f2 71 8c 3a 1e 18 0b 3f 16 7c 13 bd
       -0.2299719 0.0010715111 0.54333675 -0.03600701
0002f0 07 6d d7 3e 7b c5 16 3f 08 d7 78 be 5e 5b 85 be
       0.4207537 0.5889508 -0.24300778 -0.2604627
000300 45 46 05 bf bf 02 c2 3e b8 3b 61 bc 27 b2 70 be
       -0.5206035 0.3789272 -0.013747148 -0.2350546
000310 df 18 23 3e 46 2a 15 3f b2 79 d5 bb 63 7a 25 be
       0.15927456 0.5826763 -0.0065147514 -0.16159968
000320 5a b7 26 3f a8 59 1f be de 10 fc 3e e8 50 2f 3f
       0.6512352 -0.15561545 0.4923162 0.6848283
000330 03 79 2c 3f 5c 4d 45 bf 56 4c 90 be 50 25 cf 3e
       0.6737215 -0.77071166 -0.2818324 0.40458155
000340 c6 ef 8b 3e 58 ef f3 3e 7f 7c 00 3f 55 03 5d be
       0.2733137 0.47643542 0.50189966 -0.21583302
000350 df be d6 3e 0a fa cd 3e 6a 7c 17 3f 0a bd 34 bf
       0.41942498 0.40229827 0.59174216 -0.7060095
000360 52 ef 00 3f c4 e0 0d 3f dc a5 a6 bb 24 27 bb 3e
       0.50365174 0.5542109 -0.00508569 0.365533
000370 f2 1f 0b 3f 91 d3 10 3f 45 96 96 3e 64 48 c6 be
       0.5434562 0.56572825 0.29411522 -0.38727105
000380 9b 91 eb 3e 19 61 0b 3f 61 d4 0d 3f f1 77 13 3f
       0.46009526 0.54445034 0.5540219 0.5760489
000390 dc 8c 09 3f 92 1a e7 3e b1 e3 09 3f 13 74 f6 3e
       0.5373056 0.4513746 0.53863055 0.48135433
0003a0 76 7d 5b bd d3 e4 2d 3f 48 e9 51 be 9c 20 24 3f
       -0.053586446 0.67927283 -0.20499146 0.6411226
0003b0 90 a8 e8 3e 49 05 2e 3f dc dc 42 bc 73 c0 ed 3e
       0.45441103 0.67976815 -0.011893477 0.4643589
0003c0 45 55 29 bc b3 58 f9 3e cc 0e 09 3f ed d5 9c 3e
       -0.010335271 0.48700485 0.53538203 0.30631962
0003d0 2b 1a 12 3f 79 6f b1 be d2 78 0b 3f 39 ea e6 be
       0.5707118 -0.3465536 0.5448123 -0.45100573
0003e0 21 03 ed be 99 7b 06 3f c9 6d 15 3f 31 99 5f 3d
       -0.4629145 0.52532345 0.58370644 0.054589454
0003f0 26 22 05 3f 74 7c 06 be a8 f2 be 3e 82 3d 3a be
       0.5200523 -0.13133413 0.37294507 -0.18187526

fc2.bias f4 [2]
000000 f3 a2 d6 3e 0b 23 c8 3e
       0.41921195 0.39089236
